time taken for batch of 512 simulations + calculations: 111593.96171569824us
time taken per simulation of g + e and reward calculation: 217.95695647597313us
==========================================================================================
Layer (type:depth-idx)                   Output Shape              Param #
==========================================================================================
CombinedAgent                            [512, 124]                --
├─Linear: 1-1                            [512, 128]                256
├─ReLU: 1-2                              [512, 128]                --
├─Linear: 1-3                            [512, 128]                16,512
├─ReLU: 1-4                              [512, 128]                --
├─Linear: 1-5                            [512, 124]                15,996
├─Linear: 1-6                            [512, 124]                15,996
├─Sigmoid: 1-7                           [512, 124]                --
├─Linear: 1-8                            [512, 1]                  129
==========================================================================================
Total params: 48,889
Trainable params: 48,889
Non-trainable params: 0
Total mult-adds (M): 25.03
==========================================================================================
Input size (MB): 0.00
Forward/backward pass size (MB): 2.07
Params size (MB): 0.20
Estimated Total Size (MB): 2.27
==========================================================================================
…
