time taken for batch of 512 simulations + calculations: 42906.04591369629us
time taken per simulation of g + e and reward calculation: 83.80087092518806us
==========================================================================================
Layer (type:depth-idx)                   Output Shape              Param #
==========================================================================================
CombinedAgent                            [512, 104]                --
├─Linear: 1-1                            [512, 128]                256
├─ReLU: 1-2                              [512, 128]                --
├─Linear: 1-3                            [512, 128]                16,512
├─ReLU: 1-4                              [512, 128]                --
├─Linear: 1-5                            [512, 104]                13,416
├─Linear: 1-6                            [512, 104]                13,416
├─Sigmoid: 1-7                           [512, 104]                --
├─Linear: 1-8                            [512, 1]                  129
==========================================================================================
Total params: 43,729
Trainable params: 43,729
Non-trainable params: 0
Total mult-adds (M): 22.39
==========================================================================================
Input size (MB): 0.00
Forward/backward pass size (MB): 1.90
Params size (MB): 0.17
Estimated Total Size (MB): 2.08
==========================================================================================
…
