time taken for batch of 100 simulations + calculations: 8715.86799621582us
time taken per simulation of g + e and reward calculation: 87.1586799621582us
==========================================================================================
Layer (type:depth-idx)                   Output Shape              Param #
==========================================================================================
CombinedAgent                            [100, 104]                --
├─Linear: 1-1                            [100, 128]                256
├─ReLU: 1-2                              [100, 128]                --
├─Linear: 1-3                            [100, 128]                16,512
├─ReLU: 1-4                              [100, 128]                --
├─Linear: 1-5                            [100, 104]                13,416
├─Linear: 1-6                            [100, 104]                13,416
├─Sigmoid: 1-7                           [100, 104]                --
├─Linear: 1-8                            [100, 1]                  129
==========================================================================================
Total params: 43,729
Trainable params: 43,729
Non-trainable params: 0
Total mult-adds (M): 4.37
==========================================================================================
Input size (MB): 0.00
Forward/backward pass size (MB): 0.37
Params size (MB): 0.17
Estimated Total Size (MB): 0.55
==========================================================================================
…
